lib/logs/actor.pkl (torch_old, 368296 bytes, 5 tensors)

fc1.weight f4 [300, 3]
0.34374806 0.040697932 0.57767 0.1543101 0.2737984 -0.0342341 0.35904035 -0.42822036
0.5005552 0.27740836 0.12113802 0.19352542 0.08579096 0.22403283 0.20550738 0.54454297
0.2762216 -0.16990454 0.48611823 0.1375004 0.28174803 -0.009584096 0.34086215 0.2235668
0.13754164 -0.20043078 0.57139015 -0.17224088 -0.5280827 0.13553065 0.12076874 0.19837153
0.4379372 -0.116269 0.52285296 -0.11526701 0.41291264 -0.41054183 0.3457499 -0.21116413
-0.08529167 -0.19498159 -0.35099444 -0.3336409 0.40237105 0.25896803 -0.21394695 0.1892035
-0.34083453 -0.04371879 0.2407887 0.51954114 0.14713898 -0.38517922 -0.28198457 -0.22148877
-0.036137983 -0.13114879 -0.21154712 0.15410365 -0.38926402 -0.27432415 0.1875755 0.53037214
0.27733737 0.22949679 -0.08207214 -0.4825084 -0.13324396 -0.5126108 -0.28803706 0.019332923
-0.52126926 0.07253675 -0.30951422 -0.5463092 -0.09665267 -0.36942407 -0.32192448 0.52479905
0.3699132 0.10035538 0.23443109 0.274071 0.31239462 0.408531 -0.5092546 0.37076735
0.09241436 -0.26059425 -0.19975664 0.48749357 0.5575864 -0.11198543 -0.06640933 0.18506679
-0.2355096 -0.09851074 0.14451368 -0.32984287 -0.14197291 0.57792425 0.244248 0.14670613
0.44079414 0.2501684 -0.1828797 0.2638708 -0.022656085 0.5278675 0.333267 0.4970065
-0.2520453 0.111049026 -0.031702187 0.15665053 0.35580817 -0.11847967 0.21936738 -0.53652406
0.5162549 -0.12419311 0.55177385 0.39285687 -0.075798266 0.57431954 -0.43903726 0.098794766
0.30304858 0.35239372 0.3466958 0.37224817 -0.20204057 0.3678722 -0.12576635 -0.2678281
-0.28349236 0.32867482 -0.19219074 -0.55537456 0.17785731 0.09177619 0.417054 -0.09646914
0.50875527 0.086782746 0.43207878 -0.3811182 0.5294337 -0.45836854 0.4497946 -0.51316124
-0.41655782 0.50899136 -0.40670988 0.2397692 -0.013802535 0.51730394 -0.10668092 0.27537775
-0.41465563 -0.23537512 0.06652968 0.35345036 0.4499417 0.3784089 -0.18060394 -0.49012938
0.11359809 0.3243488 -0.26560655 -0.33581954 -0.5803445 -0.044466842 -0.1121236 -0.36386856
0.32249233 0.4074371 0.5220046 -0.44786316 0.34901574 -0.3299026 -0.54113346 0.35359144
-0.50460345 -0.32085124 0.22746035 -0.33842766 -0.37108538 -0.47484747 -0.2522763 -0.5475782
0.52806157 0.5712018 -0.107775986 0.10116673 -0.39857996 0.5588134 0.28012615 0.35072282
0.0645588 -0.045256373 -0.24297878 -0.54004925 0.09031683 -0.47187415 -0.44039017 0.2749615
-0.14455833 -0.3493527 -0.38835847 0.30067784 0.1899564 0.4159318 -0.2345982 -0.06457799
-0.18412279 -0.57167965 -0.023277765 0.23413733 0.13581052 0.3404588 0.37902075 0.14466864
0.5561316 -0.014081437 -0.25943118 -0.07560296 0.0654285 -0.5349972 -0.10173337 -0.3228135
-0.059617553 0.13319725 -0.5189304 -0.47346473 0.4187294 -0.20109352 0.03684865 -0.37458158
-0.21219984 0.09008423 -0.17079875 -0.2742114 0.1355762 -0.20189291 -0.02334171 -0.27143824
-0.1923645 -0.15480502 0.441622 0.3114749 -0.5069847 0.050577726 0.34699672 -0.40533796
00000000: bfff af3e e0b2 263d 2ee2 133f 7803 1e3e
00000010: 4e2f 8c3e 0e39 0cbd 23d4 b73e b33f dbbe
00000020: 6324 003f 7808 8e3e 3617 f83d 872b 463e
00000030: 2cb3 af3d dd68 653e 8770 523e 2b67 0b3f
00000040: eb6c 8d3e 75fb 2dbe 7de4 f83e e8cc 0c3e
00000050: 4741 903e 9d06 1dbc 7c85 ae3e b2ee 643e
00000060: b7d7 0c3e ba3d 4dbe a046 123f ea5f 30be
00000070: 6e30 07bf 8cc8 0a3e 9a55 f73d e821 4b3e
00000080: 4e39 e03e 711e eebd b1d9 053f 1c11 ecbd
00000090: 4969 d33e 8a32 d2be 2206 b13e 693b 58be
000000a0: 66ad aebd 41a9 47be 8bb5 b3be fbd2 aabe
000000b0: 9403 ce3e 7597 843e e914 5bbe 90be 413e
000000c0: dd81 aebe 7912 33bd 5091 763e a600 053f
000000d0: 9aab 163e 3636 c5be 4860 90be f4cd 62be
000000e0: 6c05 14bd de4b 06be cf9f 58be 59cd 1d3e
000000f0: 9d4d c7be 3774 8cbe cb13 403e 78c6 073f
00000100: 2aff 8d3e 3501 6b3e 7015 a8bd 570b f7be
00000110: 1b71 08be 763a 03bf 9879 93be 1460 9e3c
00000120: e771 05bf 268e 943d a678 9ebe ebda 0bbf
00000130: d6f1 c5bd 2725 bdbe 49d3 a4be 3b59 063f
00000140: 4365 bd3e 1f87 cd3d b40e 703e 0953 8c3e
00000150: 30f2 9f3e fa2a d13e 825e 02bf 38d5 bd3e
00000160: bd43 bd3d 9c6c 85be 018d 4cbe c298 f93e
00000170: fbbd 0e3f 9e58 e5bd 9d01 88bd 2682 3d3e
00000180: 6e29 71be 00c0 c9bd 65fb 133e 2ae1 a8be
00000190: 5961 11be d8f2 133f 261c 7a3e 223a 163e
000001a0: c5af e13e 1316 803e d144 3bbe 131a 873e
000001b0: 4199 b9bc 5322 073f f9a1 aa3e a377 fe3e
000001c0: 150c 81be ac6d e33d 27da 01bd ff68 203e
000001d0: 7d2c b63e 78a5 f2bd d8a1 603e a459 09bf
000001e0: 4829 043f f558 febd 0d41 0d3f 8924 c93e
000001f0: 1f3c 9bbd 9b06 133f 7ec9 e0be e954 ca3d
00000200: 2f29 9b3e f36c b43e 1d82 b13e 5097 be3e
00000210: b9e3 4ebe bf59 bc3e e5c8 00be c420 89be
00000220: e925 91be 1148 a83e a6cd 44be 072d 0ebf
00000230: 3a20 363e 28f5 bb3d 1a88 d53e 9d91 c5bd
00000240: c93d 023f 27bb b13d 6e39 dd3e ed21 c3be
00000250: f888 073f 48af eabe 7a4b e63e 895e 03bf
00000260: 1147 d5be 424d 023f 473c d0be 0f86 753e
00000270: 0724 62bc 086e 043f 877b dabd 50fe 8c3e
00000280: be4d d4be 2d06 71be b640 883d 72f7 b43e
00000290: c25e e63e d0be c13e 3df0 38be 3df2 fabe
000002a0: 1ea6 e83d 0c11 a63e 95fd 87be 8af0 abbe
000002b0: 7591 14bf dd22 36bd 0fa1 e5bd fb4c babe
000002c0: b71d a53e 989b d03e 18a2 053f 524e e5be
000002d0: 31b2 b23e fee8 a8be b987 0abf f009 b53e
000002e0: b12d 01bf 9d46 a4be 5eeb 683e 6446 adbe
000002f0: e7fe bdbe 351f f3be 5c2a 81be 162e 0cbf
00000300: 0b2f 073f 483a 123f a8b9 dcbd 8130 cf3d
00000310: ac12 ccbe 650e 0f3f b26c 8f3e f191 b33e
00000320: 6737 843d bf5e 39bd 6ecf 78be ab40 0abf
00000330: 08f8 b83d 7d99 f1be d27a e1be c1c7 8c3e
00000340: 1907 14be 5bde b2be ecd6 c6be 72f2 993e
00000350: ee83 423e 03f5 d43e 833a 70be 7741 84bd
00000360: af8a 3cbe 9959 12bf 03b1 bebc b2c1 6f3e
00000370: ea11 0b3e 9e50 ae3e 020f c23e 0424 143e
00000380: a45e 0e3f d4b5 66bc 2ad4 84be bad5 9abd
00000390: 61ff 853d 94f5 08bf 9659 d0bd d047 a5be
000003a0: 8931 74bd dc64 083e 9fd8 04bf f869 f2be
000003b0: b363 d63e 76eb 4dbe 9cee 163d 28c9 bfbe
000003c0: ea4a 59be 157e b83d dee5 2ebe 7065 8cbe
000003d0: 7dd4 0a3e 04bd 4ebe 1d37 bfbc f4f9 8abe
000003e0: 33fb 44be 3585 1ebe 471c e23e a379 9f3e
000003f0: c0c9 01bf 972a 4f3d 8ea9 b13e 7588 cfbe

fc1.bias f4 [300]
0.15096004 0.11102465 0.06406809 -0.28270847 0.40510213 0.48591128 0.5577094 0.39661798
0.14486156 0.28215644 0.15102246 0.41713881 0.30340263 -0.5242174 -0.30195418 -0.35601747
-0.25883228 -0.2526987 0.2656861 0.3270069 -0.4373914 0.22151817 -0.5096397 -0.5094088
0.131079 0.107419446 -0.24548638 0.25337157 0.357693 -0.0807162 -0.057766903 0.17591287
-0.034253083 0.51246536 0.41560578 -0.4961241 -0.53857017 -0.34319258 -0.028564766 -0.18725845
-0.46295613 0.22028904 0.37212506 0.40754524 0.4689775 -0.43601146 0.45504037 -0.53833157
0.36288354 0.3104485 -0.53563225 0.45716932 -0.22949408 -0.053872388 0.5192063 -0.34776056
0.37103796 0.019237978 -0.34914345 0.5182311 -0.44369367 0.4994989 -0.49578774 0.051959984
-0.20874165 0.016849939 0.24148083 -0.26779822 0.45741278 0.23330101 -0.4477804 -0.22913887
-0.38595703 -0.4968131 0.22527464 0.44349512 -0.44281942 -0.31693658 0.025517778 0.45181087
0.4376874 0.14169303 -0.31786737 0.21348897 0.21848015 -0.4594971 0.15736854 0.21954623
0.09852921 -0.10385746 -0.5637111 0.45816013 -0.3802043 0.44257507 -0.5581879 0.040928222
-0.14550461 0.36395103 0.3127249 0.40070888 -0.4540358 -0.16780339 0.047066733 0.408344
0.18558288 -0.09075438 0.20865235 0.081231534 0.45435283 0.27961484 0.17766114 0.36902466
0.49723217 0.13847876 0.09255859 -0.28829962 0.0565291 -0.10099834 -0.35136962 0.5717148
0.13150233 -0.4800329 0.48077035 0.04073465 -0.013172279 0.18035078 0.25834382 0.5683474
-0.2222276 0.4173482 0.1946074 -0.45969108 -0.46886304 0.2092147 0.08744082 0.37197092
-0.36527053 -0.23913074 -0.39292017 0.23247269 -0.460496 0.48921278 -0.2967378 -0.4113932
-0.29856876 -0.40575662 -0.18964122 0.16690005 -0.19251591 -0.45294386 0.13392997 -0.56988305
0.43332738 -0.3850854 -0.23470668 -0.15371346 0.098453596 -0.025495615 -0.14666134 -0.30084395
0.5096576 0.45536506 0.5169432 -0.3465738 -0.018355103 0.30734485 0.4228151 0.07699384
-0.5191401 -0.29093665 -0.04670469 -0.32614976 -0.32218 0.36317256 0.27628022 0.06382506
-0.55712706 -0.00018280295 0.42827258 -0.24367659 -0.29482523 0.13432536 0.3522716 0.48712912
-0.38469547 -0.3865842 -0.5492181 -0.3037981 0.37817731 -0.4147218 0.43730873 0.4343067
0.50707996 0.5246413 -0.31760797 -0.26737 0.008977331 -0.06513192 0.46523792 0.49086708
-0.18275632 -0.32557735 0.2684005 0.28550574 -0.2186225 0.15420088 0.025374286 0.14672719
-0.27234638 0.45519698 -0.17504425 -0.11925651 -0.47023174 -0.09171612 -0.51183414 -0.4294199
-0.3795484 0.012453455 0.27506116 0.5724768 -0.2760184 -0.3006973 0.46234056 0.56757426
0.4453329 -0.34156957 -0.24806161 -0.46869564 0.19103043 0.04258937 0.15696815 0.08029055
-0.24765782 0.47111377 0.04550086 0.34552246 -0.09130566 0.20365907 -0.31434977 0.5082705
0.37914425 -0.13591129 0.13602126 0.1239134 0.5177071 0.42575148 0.56156415 -0.13556512
0.42289087 0.45234072 -0.16863987 -0.093760505 0.1512394 -0.32855704 -0.4386973 0.071204744
00000000: 4595 1a3e e460 e33d 2136 833d 2abf 90be
00000010: 8c69 cf3e 5dc9 f83e 0bc6 0e3f 8311 cb3e
00000020: 9756 143e cf76 903e a2a5 1a3e 3893 d53e
00000030: 9757 9b3e 1d33 06bf bd99 9abe ec47 b6be
00000040: aa85 84be b961 81be 0208 883e 736d a73e
00000050: c4f1 dfbe a9d5 623e bf77 02bf 9d68 02bf
00000060: 9339 063e bafe db3d c860 7bbe ebb9 813e
00000070: 8923 b73e 894e a5bd fd9c 6cbd 8122 343e
00000080: f64c 0cbd ee30 033f 48ca d43e fa03 febe
00000090: bcdf 09bf f0b6 afbe a800 eabc aec0 3fbe
000000a0: 9608 edbe 7393 613e 2d87 be3e c5a9 d03e
000000b0: d21d f03e e53c dfbe 0dfb e83e 19d0 09bf
000000c0: dfcb b93e 1bf3 9e3e 321f 09bf 1912 ea3e
000000d0: 7f00 6bbe 4ba9 5cbd b4ea 043f ac0d b2be
000000e0: b0f8 bd3e f798 9d3c eec2 b2be cbaa 043f
000000f0: d12b e3be 52be ff3e e4d7 fdbe fed3 543d
00000100: 5fc0 55be e208 8a3c c046 773e d91c 89be
00000110: 0232 ea3e 76e6 6e3e 7943 e5be 61a3 6abe
00000120: 299c c5be 495e febe 65ae 663e cb11 e33e
00000130: 3ab9 e2be 8345 a2be a90a d13c c153 e73e
00000140: 9018 e03e fa17 113e 83bf a2be da9c 5a3e
00000150: 43b9 5f3e 3443 ebbe 3825 213e bad0 603e
00000160: afc9 c93d 38b3 d4bd 5f4f 10bf f793 ea3e
00000170: 23aa c2be 3399 e23e 67e5 0ebf 5aa4 273d
00000180: 29ff 14be ca57 ba3e 7a1d a03e b729 cd3e
00000190: 6177 e8be a7d4 2bbe 0cc9 403d 7712 d13e
000001a0: 7009 3e3e 6fdd b9bd f6a8 553e b85c a63d
000001b0: efa0 e83e ad29 8f3e cdec 353e cdf0 bc3e
000001c0: 3795 fe3e 60cd 0d3e 5c8f bd3d 029c 93be
000001d0: 0f8b 673d 38d8 cebd b8e6 b3be e75b 123f
000001e0: 8ca8 063e dfc6 f5be 8827 f63e 60d9 263d
000001f0: 8bd0 57bc e0ad 383e a445 843e 377f 113f
00000200: a28f 63be aaae d53e 2a47 473e a15c ebbe
00000210: d10e f0be 613c 563e 2c14 b33d f972 be3e
00000220: bd04 bbbe b0de 74be d52c c9be 520d 6e3e
00000230: 22c6 ebbe 197a fa3e 04ee 97be 21a2 d2be
00000240: 01de 98be 55bf cfbe 4f31 42be d9e7 2a3e
00000250: e422 45be 42e8 e7be f024 093e dbe3 11bf
00000260: 16dd dd3e ea29 c5be f356 70be 1067 1dbe
00000270: 0aa2 c93d 2edc d0bc 642e 16be 3808 9abe
00000280: ec78 023f 9c25 e93e 6456 043f 1f72 b1be
00000290: 715d 96bc 4e5c 9d3e 397b d83e f2ae 9d3d
000002a0: 5ee6 04bf a6f5 94be 6b4d 3fbd 1afd a6be
000002b0: c7f4 a4be c1f1 b93e 9a74 8d3e b7b6 823d
000002c0: e19f 0ebf cbae 3fb9 8b46 db3e 5b86 79be
000002d0: 55f3 96be 968c 093e f15c b43e fd68 f93e
000002e0: cef6 c4be 5dee c5be 8f99 0cbf 6d8b 9bbe
000002f0: 75a0 c13e 6a56 d4be eee6 df3e 735d de3e
00000300: fecf 013f e44e 063f 839d a2be b8e4 88be
00000310: a815 133c e263 85bd aa33 ee3e ee52 fb3e
00000320: 7924 3bbe 13b2 a6be ca6b 893e cf2d 923e
00000330: 94de 5fbe d6e6 1d3e bcdd cf3c a73f 163e
00000340: fc70 8bbe 940f e93e cd3e 33be c23c f4bd
00000350: 37c2 f0be a9d5 bbbd 9007 03bf eddc dbbe
00000360: 2b54 c2be 9309 4c3c d1d4 8c3e d78d 123f
00000370: 4952 8dbe fff4 99be e7b7 ec3e 8c4c 113f
00000380: ad02 e43e 35e2 aebe dd03 7ebe e0f8 efbe
00000390: 7b9d 433e 3172 2e3d 42bc 203e 5f6f a43d
000003a0: 039a 7dbe d335 f13e 1c5f 3a3d 52e8 b03e
000003b0: 76fe babd 018c 503e 74f2 a0be 041e 023f
000003c0: 321f c23e 542c 0bbe 2849 0b3e 4fc6 fd3d
000003d0: 7488 043f 19fc d93e abc2 0f3f 95d1 0abe
000003e0: 2785 d83e 3499 e73e eeaf 2cbe 8205 c0bd
000003f0: 80de 1a3e a138 a8be ef9c e0be cbd3 913d

fc2.weight f4 [300, 300]
0.014283214 -0.03427247 0.031779837 -0.034609996 0.009971005 0.041165043 0.037732445 -0.022089528
0.009194482 0.015857898 0.02263306 -0.032726586 -0.017433414 0.00773473 -0.018652633 -0.017773924
0.048733294 -0.028814688 0.045009427 0.02553088 0.019699082 -0.04257479 -0.022819607 0.018254828
-0.02879794 -0.023820976 -0.009280781 -0.019284306 -0.023694433 0.030943472 -0.001753849 0.0022122404
0.043992452 0.046799183 -0.024784774 -0.008557835 -0.047055755 -0.030569097 -0.023876864 0.0012103551
0.039933063 -0.024715368 -0.0045995316 0.052509822 0.047149446 0.059664175 0.056107573 0.053923592
-0.015429099 -0.004990614 0.011958772 0.0047647227 0.031117177 -0.0029062189 -0.045805447 0.02918219
-0.019770488 0.05931657 0.011767678 0.021052646 -0.0406443 0.024760772 -0.013202652 -0.019345136
0.05791648 -0.038740247 -0.037028898 0.020951634 -0.04417252 0.04059019 0.019527178 -0.042516734
0.015610683 0.006463485 -0.008098703 -0.04996317 0.04476238 0.01597192 -0.004669371 -0.039560072
0.02483128 0.031063078 -0.027417287 0.02323605 0.04214676 -0.010917464 -0.033468165 -0.013456947
-0.0057865744 0.02983306 0.0143256495 0.04906905 0.050086554 0.05585439 -0.01800973 0.04218809
0.004300157 -0.02201492 0.043733176 0.050313246 0.008128959 0.024592271 0.011668234 0.022136994
-0.0036742657 0.028982596 -0.013775903 -0.024546744 0.04320932 -0.003001116 -0.049133062 0.029240526
0.0060069733 -0.011184345 0.0430547 -0.015153087 0.016564997 -0.008874096 -0.010863288 0.06287432
0.0350368 0.017589236 -0.04701916 -0.033907663 -0.033123363 -0.012859967 -0.034567934 -0.03408974
0.05536645 -0.04772516 0.029983979 -0.041797478 -0.011473515 -0.011324527 -0.043763377 0.0032736678
-0.041510895 0.04563558 0.017491633 -0.002187264 -0.04818052 -0.013120532 0.012312505 0.06361601
-0.018494604 0.059308805 -0.0096705435 -0.006981371 0.04308675 -0.04587383 0.03451014 -0.03813043
-0.009431763 -0.0016394282 -0.013267699 0.02973789 -0.021734117 -0.006474989 -0.032127008 0.002171426
0.03702635 0.013546779 0.019023696 -0.025895722 -0.032423146 0.031427987 -0.03658479 0.025992429
0.015015465 -0.009436606 -0.006655535 -0.0044964203 0.042177055 -0.02812947 0.027377767 -0.048649084
0.042977504 0.06435148 0.031243445 -0.029932586 0.055985585 -0.046109125 -0.02577469 -0.04989243
-0.045566592 -0.023050744 0.05377925 -0.00015613552 -0.024676383 0.038571898 0.037594255 0.01841236
0.006542673 -0.014007032 0.010864108 0.026513278 -0.0016392046 -0.045201655 0.04170602 -0.02343284
0.05202706 0.02778555 0.019070389 -0.008139202 0.026434869 0.044417646 0.00027828326 0.054904345
-0.053000316 -0.029869787 0.049926378 -0.025967073 -0.010704094 -0.047607467 0.025951188 -0.0064326213
-0.054146323 -0.033247087 0.002125775 -0.004058027 -0.018583937 -0.047921523 -0.019097494 0.030584788
-0.04389211 0.051608887 -0.019993713 -0.0032003138 -0.03228685 0.050520025 0.010777625 -0.03018959
-0.020016966 -0.003416265 0.047868676 -0.019214192 -0.016535448 -0.006190056 -0.016697219 -0.047636468
-0.011340281 0.012144975 -0.045800865 -0.038610924 0.04692563 0.050808378 -0.013674398 0.013115486
0.04106619 -0.004829844 -0.04284553 0.032049492 0.05652374 -0.04229343 -0.008464815 0.0156981
00000000: 2404 6a3c 4a61 0cbd 932b 023d 36c3 0dbd
00000010: 6d5d 233c ad9c 283d 568d 1a3d 19f5 b4bc
00000020: 74a4 163c 6ce8 813c f868 b93c 500c 06bd
00000030: 85d0 8ebc 9e73 fd3b 68cd 98bc 9f9a 91bc
00000040: 909c 473d c80c ecbc ce5b 383d 2326 d13c
00000050: f85f a13c e762 2ebd 2ff0 babc 268b 953c
00000060: a8e9 ebbc 3524 c3bc 6b0e 18bc 1ffa 9dbc
00000070: d41a c2bc 2a7d fd3c 68e1 e5ba 3cfb 103b
00000080: 6e31 343d 80b0 3f3d 7009 cbbc 2936 0cbc
00000090: 89bd 40bd 0b6c fabc 6a99 c3bc c7a4 9e3a
000000a0: da90 233d e277 cabc abb7 96bb 8a14 573d
000000b0: c71f 413d 6c62 743d 0ed1 653d fcde 5c3d
000000c0: 55ca 7cbc 4e88 a3bb baee 433c 6421 9c3b
000000d0: 73e9 fe3c 4376 3ebb 7e9e 3bbd 7d0f ef3c
000000e0: b8f5 a1bc eff5 723d 38cd 403c 9976 ac3c
000000f0: a37a 26bd 1ad7 ca3c f04f 58bc b179 9ebc
00000100: d539 6d3d 18ae 1ebd 9dab 17bd c3a2 ab3c
00000110: 3fee 34bd e641 263d 76f7 9f3c 0726 2ebd
00000120: f3c3 7f3c a4cb d33b 6cb0 04bc 2ea6 4cbd
00000130: c258 373d 8bd7 823c 8601 99bb be09 22bd
00000140: f86a cb3c ff77 fe3c 389a e0bc 8759 be3c
00000150: 15a2 2c3d 2adf 32bc ea15 09bd 877a 5cbc
00000160: 4e9d bdbb 7664 f43c 21b6 6a3c a1fc 483d
00000170: 8f27 4d3d 93c7 643d 2489 93bc 6bcd 2c3d
00000180: 55e8 8c3b a258 b4bc 8f21 333d 4315 4e3d
00000190: 532f 053c bb75 c93c 1f2c 3f3c a458 b53c
000001a0: f3cb 70bb e96c ed3c 53b4 61bc 4116 c9bc
000001b0: 42fc 303d 5fae 44bb c03f 49bd d489 ef3c
000001c0: 25d6 c43b 8b3e 37bc 205a 303d a744 78bc
000001d0: 51b3 873c a864 11bc effb 31bc 40c4 803d
000001e0: bf82 0f3d 4d17 903c 2a97 40bd c3e2 0abd
000001f0: 5dac 07bd 9cb2 52bc 1b97 0dbd afa1 0bbd
00000200: eec7 623d 757b 43bd f6a0 f53c d533 2bbd
00000210: 69fb 3bbc 828a 39bc 3a41 33bd 088b 563b
00000220: 5407 2abd 60ec 3a3d 9d4a 8f3c 3358 0fbb
00000230: f058 45bd 80f7 56bc 64ba 493c 1c49 823d
00000240: ff81 97bc caed 723d 3371 1ebc fcc3 e4bb
00000250: bb7b 303d 32e6 3bbd 815a 0d3d a72e 1cbd
00000260: ae87 1abc 15e2 d6ba c360 59bc e09c f33c
00000270: bf0b b2bc 252c d4bb 9c97 03bd 7c4e 0e3b
00000280: f1a8 173d 4ff3 5d3c 95d7 9b3c 4423 d4bc
00000290: 22ce 04bd a2ba 003d efd9 15bd 13ee d43c
000002a0: 6d03 763c ff9b 1abc ad16 dabb b556 93bb
000002b0: d9c1 2c3d c66f e6bc 5747 e03c 4344 47bd
000002c0: 2e09 303d b5ca 833d 41f2 ff3c 2f35 f5bc
000002d0: 2451 653d ecdc 3cbd 7125 d3bc 015c 4cbd
000002e0: 09a4 3abd ead4 bcbc a147 5c3d 4fb8 23b9
000002f0: 2026 cabc 91fd 1d3d 6ffc 193d 85d5 963c
00000300: eb63 d63b c07d 65bc 5fff 313c 6032 d93c
00000310: 94da d6ba 5f25 39bd eed3 2a3d 3af6 bfbc
00000320: 541a 553d 869e e33c 8139 9c3c 4a5a 05bc
00000330: f08d d83c 47ef 353d 8ce6 9139 61e3 603d
00000340: dc16 59bd 7cb1 f4bc 9a7f 4c3d e6b8 d4bc
00000350: 3960 2fbc 0c00 43bd 9697 d43c bdc8 d2bb
00000360: 89c8 5dbd 192e 08bd 9650 0b3b 33f9 84bb
00000370: 573d 98bc 5c49 44bd 5972 9cbc f38c fa3c
00000380: 37c8 33bd d763 533d dbc9 a3bc 5bbc 51bb
00000390: 373f 04bd 16ee 4e3d a394 303c 2950 f7bc
000003a0: 9ffa a3bc 6ae3 5fbb f211 443d 1567 9dbc
000003b0: 5975 87bc f4d5 cabb 9bc8 88bc 751e 43bd
000003c0: 96cc 39bc b8fb 463c b099 3bbd 7d26 1ebd
000003d0: 1735 403d 721c 503d 950a 60bc 56e2 563c
000003e0: 0535 283d ab43 9ebb cb7e 2fbd 5446 033d
000003f0: 7085 673d e03b 2dbd 02b0 0abc 4d99 803c

fc2.bias f4 [300]
-0.0137580335 0.03946491 -0.01605277 0.02719041 -0.002047087 0.0067622038 0.045053877 0.025345534
-0.0058772895 0.0034220736 0.060111023 0.02701609 0.04698256 0.0049499394 0.037402645 -0.033374052
0.012596394 0.004122477 0.0403682 0.0009385639 -0.05606801 -0.024182994 0.052405607 0.027165115
0.016650258 0.032507658 0.0099936 0.023587003 -0.024738228 0.033060987 0.04948316 -0.05040359
0.012706209 0.0379767 0.056047164 -0.051943414 0.016887952 0.035291452 -0.009486761 0.008466687
0.052868955 0.05799574 0.016000561 0.049225572 -0.044861164 0.049313325 0.033128753 0.03910965
0.005573686 0.0044088173 0.009694211 0.041178502 -0.040456843 0.0031365224 -0.017616535 -0.017847942
-0.029509034 0.018612344 -0.0029651704 0.056918673 -0.04919821 0.036535956 -0.015012242 0.01819403
0.054943852 0.049782112 -0.042442366 -0.016755924 0.027378649 0.042425692 0.042315226 0.0063344208
-0.040613934 0.038044903 0.032754358 0.007951044 -0.04805202 -0.04849303 -0.059677344 0.04443761
-0.055559516 0.014686774 0.00024620508 -0.0075406902 -0.00031343155 -0.03074784 0.0014942363 0.038608395
0.050402816 0.027378507 -0.02311284 0.020691648 0.01179805 0.008090732 -0.044971887 0.043293532
0.04031556 0.028439892 -0.030019192 -0.033781707 0.008819855 0.0024348132 -0.012957035 -0.035594437
-0.055332836 0.050169926 -0.048310667 -0.015727386 -0.039272986 0.05271008 -0.04921986 -0.015168291
0.03477142 0.0018391563 0.02502013 0.007629509 0.041058134 0.014890411 0.012340221 -0.014746559
-0.056399375 0.019520197 0.021597415 0.03491029 0.055015627 -0.011091382 0.030899938 0.055062056
0.010741906 -0.03332467 -0.01724163 0.023279421 0.011684599 -0.049666636 -0.03372077 -0.012183624
-0.027748177 0.023168646 -0.021575626 0.0076508964 0.033136323 0.029540332 0.053016238 0.022032417
-0.023795942 0.0085688345 0.04540487 -0.038035378 0.043035258 0.033144753 0.047521356 -0.033706903
-0.017541794 0.014411335 -0.015215883 -0.014986031 0.018627834 0.0037816456 -0.036011662 -0.026465321
0.027621422 0.022058636 0.045950733 -0.037715312 -0.05354234 0.0059630186 -0.05440448 0.039019022
-0.055595577 0.0146812275 0.032408416 0.004463219 0.061085105 0.053651642 0.04132721 -0.008120607
-0.008172455 -0.0052682804 -0.028626507 0.027953262 -0.030702554 0.0066543943 0.0066419584 -0.0018532057
-0.021051567 0.054421272 0.030545129 0.032373853 -0.040501148 0.010806144 -0.039365865 0.011895802
0.048804272 0.028285915 -0.039041866 0.042025138 -0.0044551366 -0.052210152 -0.01216567 0.020239253
0.007652904 0.035305865 -0.01694726 0.025317455 -0.039681274 -0.012028288 0.0040776297 -0.0024564727
-0.016566608 -0.008400376 0.02273238 -0.029671276 -0.017101336 0.029118026 -0.038196072 -0.025847336
0.021933286 -0.016786676 0.048592646 -0.026748333 -0.033263013 0.02516387 -0.047428314 -0.0147258695
-0.04303098 0.0065830136 -0.044517335 0.039020557 0.048791643 0.038089924 -0.024309913 0.0005881042
-0.022085272 -0.054603785 -0.022286572 0.0057066833 -0.044722997 0.020843027 -0.0446751 -0.0015465346
-0.007082405 -0.0036861724 -0.026744463 -0.0011906746 0.057875525 -0.04779673 -0.0014623664 -0.042687546
-0.007305533 0.009273641 -0.012408859 0.031312797 -0.020350758 0.01980545 0.022718333 -0.026212858
00000000: 6069 61bc f5a5 213d 1981 83bc 6cbe de3c
00000010: 6c28 06bb 7a95 dd3b 6a8a 383d 70a1 cf3c
00000020: 4796 c0bb de44 603b fa36 763d d950 dd3c
00000030: c970 403d 1a33 a23b 8433 193d 3bb3 08bd
00000040: 1b61 4e3c d815 873b 2059 253d f509 763a
00000050: 92a7 65bd 6a1b c6bc 43a7 563d 6089 de3c
00000060: 1f66 883c c026 053d 32bc 233c 8839 c13c
00000070: d3a7 cabc f56a 073d dbae 4a3d ff73 4ebd
00000080: b42d 503c 758d 1b3d b691 653d 9ec2 54bd
00000090: 9a58 8a3c c58d 103d 5c6e 1bbc dcb7 0a3c
000000a0: 1e8d 583d f18c 6d3d 9c13 833c c1a0 493d
000000b0: 57c0 37bd c5fc 493d 04b2 073d 7131 203d
000000c0: 78a3 b63b d777 903b 78d4 1e3c caaa 283d
000000d0: 13b6 25bd 1d8e 4d3b 8d50 90bc d935 92bc
000000e0: eebc f1bc ea78 983c 4e53 42bb 8e23 693d
000000f0: 1084 49bd baa6 153d e8f5 75bc a50b 953c
00000100: ce0c 613d 54e8 4b3d 0cd8 2dbd b843 89bc
00000110: 3049 e03c 90c6 2d3d bb52 2d3d f990 cf3b
00000120: cc5a 26bd f9d4 1b3d 6f29 063d 1845 023c
00000130: 32d2 44bd a1a0 46bd 3b70 74bd 3604 363d
00000140: 6092 63bd cca0 703c 1615 8139 e517 f7bb
00000150: 1254 a4b9 e5e2 fbbc 40da c33a d623 1e3d
00000160: 2f73 4e3d e448 e03c 2357 bdbc 8881 a93c
00000170: 9c4c 413c fd8e 043c 7134 38bd 8f54 313d
00000180: ee21 253d c7fa e83c cfea f5bc b05e 0abd
00000190: 2781 103c 6391 1f3b be49 54bc 79cb 11bd
000001a0: afa4 62bd fb7e 4d3d 68e1 45bd b8d6 80bc
000001b0: b6dc 20bd 86e6 573d c49a 49bd 6c84 78bc
000001c0: 7a6c 0e3d d80f f13a 04f7 cc3c f600 fa3b
000001d0: 932c 283d e9f6 733c a32e 4a3c 8d9b 71bc
000001e0: 0803 67bd d2e8 9f3c 10ed b03c 18fe 0e3d
000001f0: 1158 613d a1b8 35bc de21 fd3c c088 613d
00000200: d2fe 2f3c 737f 08bd 523e 8dbc 7cb4 be3c
00000210: c370 3f3c 3e6f 4bbd ca1e 0abd d39d 47bc
00000220: 2550 e3bc 2ccc bd3c 5ebf b0bc 5fb4 fa3b
00000230: f4b9 073d 91fe f13c 8e27 593d 547d b43c
00000240: b5ef c2bc 4c64 0c3c 75fa 393d fcca 1bbd
00000250: bd45 303d cbc2 073d c1a5 423d 4010 0abd
00000260: cfb3 8fbc 851d 6c3c 0a4c 79bc f887 75bc
00000270: 6699 983c 7cd5 773b f780 13bd cdcd d8bc
00000280: 5246 e23c 50b4 b43c d636 3c3d 5f7b 1abd
00000290: 364f 5bbd 6d65 c33b 3bd7 5ebd 69d2 1f3d
000002a0: 30b8 63bd 8889 703c b0be 043d 3240 923b
000002b0: 6034 7a3d d3c1 5b3d b846 293d 4b0c 05bc
000002c0: c3e5 05bc 8aa1 acbb 2382 eabc 3dfe e43c
000002d0: ec83 fbbc 1b0d da3b c9a4 d93b 44e7 f2ba
000002e0: 5674 acbc d7e8 5e3d c739 fa3c 729a 043d
000002f0: 88e4 25bd 410c 313c 1a3e 21bd 9ce6 423c
00000300: fde6 473d ddb7 e73c 5dea 1fbd 8d22 2c3d
00000310: 65fc 91bb 50da 55bd 8552 47bc cacc a53c
00000320: 36c5 fa3b e29c 103d fbd4 8abc 8d66 cf3c
00000330: d588 22bd 4c12 45bc a39d 853b c6fc 20bb
00000340: b2b6 87bc bba1 09bc 4239 ba3c 2d11 f3bc
00000350: 1a18 8cbc ed88 ee3c 7c73 1cbd cbbd d3bc
00000360: 6fad b33c 3684 89bc 1509 473d 521f dbbc
00000370: cc3e 08bd 7624 ce3c 3144 42bd c644 71bc
00000380: 4141 30bd 52b6 d73b cf57 36bd 05d4 1f3d
00000390: bfd9 473d 2e04 1c3d 9525 c7bc 012b 1a3a
000003a0: 2cec b4bc 38a8 5fbd 5492 b6bc 21ff ba3b
000003b0: 762f 37bd ffbe aa3c 3dfd 36bd 17b5 caba
000003c0: 8513 e8bb b693 71bb 3417 dbbc 6910 9cba
000003d0: e30e 6d3d 81c6 43bd e0ac bfba 23d9 2ebd
000003e0: 4163 efbb 78f0 173c 874e 4bbc d941 003d
000003f0: a2b6 a6bc 0a3f a23c cc1b ba3c 59bc d6bc

fc3.weight f4 [1, 300]
-0.014256855 0.05270457 -0.051846486 -0.028329033 -0.01363925 -0.048827138 0.047000024 -0.024562748
-0.04614025 -0.06017316 -0.01803675 -0.056973796 0.03892251 0.03853574 0.04564219 0.052997395
-0.022118952 0.008238416 -0.008287898 -0.04121729 0.045967057 0.020706583 0.02082655 -0.055910487
-0.023987798 -0.052499592 0.0150135225 0.00018898655 -0.020989442 -0.03686018 0.046880506 -0.038161535
0.017516173 -0.023015786 -0.021119284 -0.04108086 -0.042208705 0.012679391 -0.021456633 0.047230333
0.03869252 0.026050381 0.025370123 -0.045447096 0.0065680444 -0.049957085 -0.012564409 0.006522561
-0.03424725 -0.027130656 0.056032486 0.008975714 0.033960585 0.04530575 0.006266921 -0.04025814
-0.018637754 0.017969677 -0.003228789 -0.059899956 -0.055033833 -0.046626296 -0.05146066 0.000120594406
-0.012780774 -0.03162781 -0.05624159 0.031047584 0.033139855 0.039612774 -0.04768997 0.0366823
-0.019538617 -0.02141596 -0.045798674 0.030665422 0.047205992 -0.0060988357 -0.017558943 0.008521959
0.015030577 0.046681806 -0.0121704945 -0.010881591 -0.018041361 0.008503508 -0.04450729 0.044792492
0.035964023 -0.03998772 0.03812957 0.017273232 0.008042165 -0.045939803 -0.035778064 0.047276184
0.022980783 -0.040256847 -0.05166973 -0.055380728 -0.04196279 -0.028025612 0.035171896 0.054065995
-0.0017365776 -0.0579397 -0.04806624 0.03958426 0.033933833 -0.05235755 0.012530862 0.04457681
0.04107859 -0.018141035 -0.0053919773 0.041355576 -0.033903446 -0.056797728 0.055436496 0.002099732
-0.00397009 0.0064133694 0.012338038 -0.014660119 0.005833274 0.05191792 -0.0039588055 -0.011629795
0.04722112 -0.030492239 0.026302285 -0.029172197 -0.021489462 -0.032968532 0.04410357 -0.059538785
0.042629115 -0.017291013 0.01477163 -0.037007265 -0.0329233 -0.011748673 -0.024170566 -0.031249166
-0.008735369 -0.048251927 -0.026902402 0.0058983983 0.02263613 -0.0058176974 0.011107074 -0.052749306
-0.050548688 -0.053384986 -0.022902336 0.008477463 -0.049496144 0.049056537 -0.00907231 -0.049494147
-0.05577063 0.047985844 0.045438062 0.04675721 -0.04626603 0.0013643439 -0.04926094 0.009639977
-0.024480388 -0.04619673 -0.028289814 0.01611052 -0.012242873 -0.025356311 0.0355269 0.029992025
0.04649968 0.04008164 -0.002975067 0.015336828 -0.05576415 -0.019818714 0.008456655 -0.024256013
0.039192654 -0.021750012 0.00058449147 0.045180194 -0.052538406 -0.056626316 0.03338275 0.019063085
-0.028905274 0.047891513 -0.054804113 0.010868541 0.0041104797 0.030285558 -0.012374902 0.006276519
0.04562841 0.012263504 0.04380482 0.039226666 0.017622646 0.002386149 -0.05173903 -0.0397942
-0.043260135 -0.05257015 -0.03297149 0.013360196 0.0022594868 0.034368906 0.043083 0.042387255
-0.053074818 0.037727382 -0.04412352 0.017727084 -0.050158896 0.0063373335 0.021083936 0.054755833
-0.029836247 -0.022465114 -0.024210026 -0.012313736 0.033025064 0.042499334 -0.03855483 0.045491252
-0.061015673 0.022399452 -0.040676277 -0.03367442 -0.042860087 -0.036225267 0.019302828 0.04124384
-0.017714644 0.049588934 0.024627944 -0.029755073 -0.04520343 -0.017915435 0.057352256 -0.0034282543
-0.02790325 0.03538227 -0.024396636 0.016001808 0.018927153 -0.03225324 -0.04661424 0.0030545539
00000000: 9595 69bc bfe0 573d fb5c 54bd 4a12 e8bc
00000010: 2977 5fbc f7fe 47bd 1983 403d d137 c9bc
00000020: 8ffd 3cbd 2278 76bd cec1 93bc 5b5d 69bd
00000030: 366d 1f3d a7d7 1d3d 4ef3 3a3d cc13 593d
00000040: ce32 b5bc 6cfa 063c f7c9 07bc 76d3 28bd
00000050: f447 3c3d daa0 a93c 719c aa3c 6502 65bd
00000060: 0f82 c4bc d009 57bd 47fb 753c b12a 4639
00000070: 0df2 abbc b3fa 16bd c605 403d 454f 1cbd
00000080: 147e 8f3c 9a8b bcbc 5902 adbc 6744 28bd
00000090: 09e3 2cbd 38bd 4f3c d2c5 afbc 9874 413d
000000a0: 0c7c 1e3d 9c67 d53c 01d5 cf3c bc26 3abd
000000b0: c038 d73b cd9f 4cbd f3da 4dbc 35bb d53b
000000c0: d846 0cbd 1c41 debc 5282 653d e00e 133c
000000d0: 411a 0b3d 8692 393d be5a cd3b b8e5 24bd
000000e0: 34ae 98bc 2535 933c 179a 53bb a859 75bd
000000f0: 286b 61bd 37fb 3ebd 6ac8 52bd a1e7 fc38
00000100: 7466 51bc 2a8c 01bd 955d 66bd 8157 fe3c
00000110: a8bd 073d 0141 223d 8f56 43bd 2e40 163d
00000120: 730f a0bc 8670 afbc 6497 3bbd 0d36 fb3c
00000130: 125b 413d bed8 c7bb c6d7 8fbc b09f 0b3c
00000140: cf42 763c 6c35 3f3d c166 47bc b348 32bc
00000150: 7acb 93bc 4c52 0b3c 474d 36bd 5578 373d
00000160: 034f 133d 2aca 23bd c12d 1c3d 9880 8d3c
00000170: 49c3 033c 602b 3cbd 058c 12bd aca4 413d
00000180: 3242 bc3c 5de4 24bd a4a3 53bd e7d6 62bd
00000190: 2de1 2bbd f895 e5bc 6810 103d 4e74 5d3d
000001a0: e09d e3ba 2e52 6dbd 1be1 44bd 1b23 223d
000001b0: 34fe 0a3d df74 56bd 3f4e 4d3c 2c96 363d
000001c0: 0642 283d 829c 94bc 2faf b0bb 7764 293d
000001d0: 57de 0abd bca4 68bd 6111 633d a89b 093b
000001e0: 8717 82bb 3e27 d23b 7b25 4a3c ff30 70bc
000001f0: 0d25 bf3b e3a7 543d deb8 81bb e58a 3ebc
00000200: ef6a 413d dcca f9bc e477 d73c 88fa eebc
00000210: ab0a b0bc 030a 07bd f2a5 343d f1de 73bd
00000220: de9b 2e3d e2a5 8dbc b504 723c ee94 17bd
00000230: 95da 06bd 827d 40bc 5a01 c6bc 40fe ffbc
00000240: cb1e 0fbc d0a3 45bd 6d62 dcbc 5a47 c13b
00000250: 686f b93c 62a2 bebb 72fa 353c a80f 58bd
00000260: 240c 4fbd 37aa 5abd ae9d bbbc 0fe5 0a3c
00000270: 78bc 4abd 82ef 483d 07a4 14bc 60ba 4abd
00000280: be6f 64bd ce8c 443d 431d 3a3d 7d84 3f3d
00000290: 7381 3dbd c9d3 b23a d7c5 49bd fef0 1d3c
000002a0: 188b c8bc c838 3dbd 0ac0 e7bc 36fa 833c
000002b0: 5596 48bc 0ab8 cfbc a884 113d d6b1 f53c
000002c0: 7376 3e3d a52c 243d 57f9 42bb 5247 7b3c
000002d0: f368 64bd db5a a2bc c88d 0a3c 8cb4 c6bc
000002e0: 7a88 203d 152d b2bc 8f38 193a de0e 393d
000002f0: 8332 57bd fff0 67bd 5abc 083d 302a 9c3c
00000300: c1ca ecbc e429 443d 477a 60bd f711 323c
00000310: 34b1 863b 6b19 f83c 1ac0 4abc 42ab cd3b
00000320: dbe4 3a3d ddec 483c af6c 333d 24ac 203d
00000330: 5e5d 903c f060 1c3b 4eec 53bd 3eff 22bd
00000340: 8a31 31bd cc53 57bd 1d0d 07bd b9e4 5a3c
00000350: e613 143b 69c6 0c3d cd77 303d 429e 2d3d
00000360: fb64 59bd 0788 1a3d ddba 34bd 6438 913c
00000370: 6a73 4dbd 68a9 cf3b 38b8 ac3c a747 603d
00000380: 256b f4bc c208 b8bc 1b54 c6bc 8dbf 49bc
00000390: 4a45 073d c813 2e3d abeb 1dbd 0955 3a3d
000003a0: 92eb 79bd 0e7f b73c 2b9c 26bd 30ee 09bd
000003b0: 0f8e 2fbd f260 14bd f720 9e3c 4def 283d
000003c0: 4d1e 91bc c41d 4b3d 8bc0 c93c e9c0 f3bc
000003d0: 3b27 39bd 64c3 92bc 33ea 6a3d 90ac 60bb
000003e0: 5b95 e4bc 00ed 103d 74db c7bc 3916 833c
000003f0: 1e0d 9b3c f91b 04bd 93ee 3ebd e92e 483b
